autoencoder.pt (torch, 5829 bytes, 8 tensors)

encoder.0.weight f4 [16, 7]
-0.31512147 0.10372472 -0.3606294 -0.07351968 -0.113866866 0.22545734 -0.3646607 0.47324505
0.21295133 -0.029266214 -0.30844706 -0.070088096 0.014091588 -0.25083995 0.41539317 -0.6164724
-0.5494853 -0.36673796 0.51614016 1.4031231 0.23668337 -0.008698965 -0.31067675 0.111383475
-0.043526888 -0.0688361 -0.17357135 -0.0386603 -0.28419197 -0.19221547 0.2477023 -0.21932794
-0.040388595 -0.17647146 -0.017914938 -0.02122354 0.82612324 0.55958694 0.0066973865 0.7257534
-0.30217117 0.02057433 0.54706436 -0.5656642 0.81973654 -0.2514158 -0.036068145 0.7881644
0.41230822 -0.2502434 0.029703684 -0.15145697 -0.3481994 -0.30916354 -0.035618357 0.028520266
-0.3915425 -0.07331671 0.012888511 -0.040442616 -0.13533662 -0.17087199 0.10957213 1.0238361
0.09670767 -0.0905921 0.3673983 0.1180517 0.13189965 -0.118263364 0.98445636 -1.1488345
0.45284352 -0.18715748 0.7386589 0.3577611 0.18447249 0.5719009 -0.7727831 0.88166267
0.27228275 0.21779189 1.2268875 0.34796783 0.56741315 0.7110941 -0.09252257 -0.17152739
0.33574584 -0.5107527 0.9135748 -0.12030038 -0.27563637 -0.11050466 -0.15023161 -0.20149286
1.1158557 0.6694271 -0.17731665 0.23139217 -0.17436303 -0.35958573 -0.33667877 -0.14197372
-0.24666616 0.49761155 0.29211232 1.428386 0.3332927 -0.02711235 0.017868435 0.27837154
00000000: 9a57 a1be a06d d43d 6ba4 b8be 7c91 96bd
00000010: 0833 e9bd 4ade 663e cfb4 babe 2d4d f23e
00000020: ea0f 5a3e b3bf efbc c6ec 9dbe 598a 8fbd
00000030: 67e0 663c 186e 80be 6aae d43e 23d1 1dbf
00000040: 12ab 0cbf 14c5 bbbe c321 043f 8a99 b33f
00000050: 205d 723e 1b86 0ebc 0611 9fbe 051d e43d
00000060: 4049 32bd f1f9 8cbd b0bc 31be 435a 1ebd
00000070: 9c81 91be 22d4 44be aca5 7d3e 8197 60be
00000080: 836e 25bd efb4 34be 59c2 92bc fddc adbc
00000090: d07c 533f 1741 0f3f c075 db3b faca 393f
000000a0: 2eb6 9abe 7f8b a83c 690c 0c3f 5ecf 10bf
000000b0: 41da 513f 92b9 80be 31bc 13bd 24c5 493f
000000c0: 101a d33e e71f 80be 2455 f33c 8917 1bbe
000000d0: 3147 b2be af4a 9ebe 8ee4 11bd 55a3 e93c
000000e0: 4278 c8be 1227 96bd 552a 533c 28a7 25bd
000000f0: af95 0abe 11f9 2ebe 5a67 e03d 100d 833f
00000100: ac0e c63d 5a88 b9bd a11b bc3e 17c5 f13d
00000110: b410 073e 1034 f2bd 5505 7c3f 020d 93bf
00000120: 1bdb e73e 36a6 3fbe c018 3d3f 772c b73e
00000130: 5be6 3c3e 1968 123f 1dd5 45bf a5b4 613f
00000140: a568 8b3e d604 5f3e a60a 9d3f d728 b23e
00000150: fd41 113f 430a 363f 797c bdbd e0a4 2fbe
00000160: e1e6 ab3e b0c0 02bf 0ae0 693f 0c60 f6bd
00000170: 3620 8dbe 4450 e2bd 51d6 19be 2554 4ebe
00000180: 5cd4 8e3f 935f 2b3f 7f92 35be 12f2 6c3e
00000190: 398c 32be 9f1b b8be 2961 acbe 8f61 11be
000001a0: 0e96 7cbe f1c6 fe3e bf8f 953e 5ad5 b63f
000001b0: 57a5 aa3e b81a debc d360 923c b786 8e3e

encoder.0.bias f4 [16]
-0.20895977 0.21951483 0.14523639 -0.107002825 -0.20352048 0.24714154 0.19294704 -0.012291786
-0.08092904 0.037180115 0.18293092 0.07519846 0.1631316 0.28144363 -0.12491375 0.07305169
00000000: 8df9 55be 7fc8 603e d9b8 143e 4c24 dbbd
00000010: ac67 50be ac12 7d3e e993 453e 7d63 49bc
00000020: 20be a5bd 2d4a 183d 3e52 3b3e a601 9a3d
00000030: f80b 273e 6119 903e c8d2 ffbd 209c 953d

encoder.2.weight f4 [8, 16]
-0.18829578 0.13085301 -0.3131089 0.06598401 0.06040622 0.5250393 0.18612602 0.093852274
0.00033876716 0.28630278 0.27930748 0.22791193 0.31092632 -0.34777108 0.19636664 0.6308791
-0.22563905 0.19218224 -0.0895192 0.06934205 0.021184325 0.06691116 -0.054108173 0.165844
0.23187214 0.1800744 0.17886269 -0.20488161 -0.23026171 0.10990852 -0.023629755 -0.24688259
0.19631276 0.2595515 -0.10435937 0.07964058 0.19850555 -0.7819118 0.19292788 -0.11642219
-0.10590679 0.72999334 0.15575495 0.34242707 0.3158792 0.39684668 0.09093997 0.56022227
-0.012716949 -0.062963 0.093675174 0.21034552 0.07578095 0.030005483 0.028477846 0.14867099
0.05931987 0.16531841 0.22886564 0.066175245 1.1182109 -0.14799815 -0.08130512 -0.27588308
-0.027366042 -0.0002699355 -0.6427736 -0.18854713 -0.1395109 0.115143344 -0.36155796 0.2316179
0.10827026 -0.030971425 -0.30851078 -0.2836234 0.052314658 -0.60118884 -0.16853166 0.026119161
-0.22920701 0.026063502 -0.0069393218 -0.096835434 -0.08484563 -0.07163286 -0.0787158 -0.17397818
0.16536215 -0.009401679 -0.059699982 -0.0550189 -0.07042518 -0.0042104125 -0.04122874 -0.0999338
0.037213176 -0.25667256 -0.1606096 0.19987006 -0.04669384 -0.03541602 0.2895017 -0.09622114
0.027196674 -0.7000816 0.13703044 -0.29742652 0.47436565 0.21702798 0.22656175 0.6490698
0.17247003 -0.12285949 0.4403513 -0.20741011 -0.13965954 -0.105483815 0.31439596 -0.12502415
-0.12860648 -0.13744582 0.32821444 1.0930418 -0.100815654 0.055156086 -0.0014635324 0.31951693
00000000: 9cd0 40be 55fe 053e cf4f a0be a022 873d
00000010: 836c 773d fa68 063f d297 3e3e 9f35 c03d
00000020: 8f9c b139 4796 923e 6401 8f3e bf61 693e
00000030: bc31 9f3e 0d0f b2be 5614 493e 4b81 213f
00000040: ec0d 67be 6ccb 443e d855 b7bd 3403 8e3d
00000050: c08a ad3c b808 893d 88a0 5dbd 02d3 293e
00000060: e46f 6d3e 6c65 383e c827 373e 7ccc 51be
00000070: bac9 6bbe b817 e13d 3093 c1bc cace 7cbe
00000080: 3606 493e efe3 843e 5eba d5bd 9a1a a33d
00000090: 0a45 4b3e 5f2b 48bf e38e 453e c26e eebd
000000a0: a9e5 d8bd d8e0 3a3f 3a7e 1f3e 9a52 af3e
000000b0: ebba a13e 7d2f cb3e bc3e ba3d ba6a 0f3f
000000c0: c05a 50bc bff2 80bd c5d8 bf3d d164 573e
000000d0: 0b33 9b3d 0fce f53c 5f4a e93c 353d 183e
000000e0: 64f9 723d 3b49 293e c15b 6a3e e386 873d
000000f0: 8921 8f3f d48c 17be 4c83 a6bd 8c40 8dbe
00000100: c02e e0bc 2186 8db9 d08c 24bf 8012 41be
00000110: f2db 0ebe 46d0 eb3d 201e b9be 3e2d 6d3e
00000120: ccbc dd3d c9b7 fdbc 20f5 9dbe 1637 91be
00000130: e547 563d 83e7 19bf 9093 2cbe daf7 d53c
00000140: 3eb5 6abe 2083 d53c 4063 e3bb a851 c6bd
00000150: 8cc3 adbd 40b4 92bd c035 a1bd 5627 32be
00000160: b254 293e 8009 1abc f887 74bd 805b 61bd
00000170: 143b 90bd 80f7 89bb 78df 28bd 18aa ccbd
00000180: d86c 183d 966a 83be d876 24be bdaa 4c3e
00000190: 0a42 3fbd 6310 11bd 9139 943e 970f c5bd
000001a0: 8fcb de3c 8c38 33bf b551 0c3e 4a48 98be
000001b0: 0ee0 f23e 953c 5e3e ceff 673e 7029 263f
000001c0: fc9b 303e c29d fbbd ba75 e13e 5163 54be
000001d0: e902 0fbe e607 d8bd 82f8 a03e 5506 00be
000001e0: 6bb1 03be 99be 0cbe b90b a83e cbe8 8b3f
000001f0: 7078 cebd 59eb 613d 00d4 bfba b997 a33e

encoder.2.bias f4 [8]
-0.006668283 -0.23890072 0.08753639 -0.13323282 0.114673324 -0.08796924 0.04988739 0.028863642
00000000: 9d81 dabb 64a2 74be 4746 b33d 2f6e 08be
00000010: d9d9 ea3d 3829 b4bd b856 4c3d 7273 ec3c

decoder.0.weight f4 [16, 8]
0.115726575 0.22186789 0.2971253 -0.34127185 0.19652079 0.20432153 0.48806164 -0.04365583
0.4968178 0.19502947 -0.14121465 0.073776945 -0.25749522 0.3116289 -0.54045886 0.3768251
0.03884636 -0.30863678 -0.37807953 0.082679376 0.29966053 -0.16848417 -0.21917345 -0.3418604
-0.122286744 0.08065742 0.29009184 0.15465386 -0.28790691 -0.26053602 0.18592867 0.0850765
0.509212 -0.2125748 0.056154035 0.16786139 0.4557514 -0.1140417 0.22409095 -0.74647945
0.20045047 -0.20609446 0.3034329 -0.36486545 0.052151263 0.14535275 -0.19498707 -0.04941177
-0.2097286 0.20035067 0.16934414 0.56204426 -0.27913463 0.3224664 -0.08873649 0.33500412
0.05330097 0.29089084 -0.4444501 0.21707085 0.109359086 0.03192106 0.22122239 -0.17604192
-0.17633964 -0.28727227 -0.1263708 0.20190218 0.11705911 0.23254642 -0.026824528 0.51344603
0.20906007 -0.11657211 0.4862754 0.42733 0.31912377 -0.15250744 -0.23720482 -0.3417316
-0.31147504 0.20638803 -0.21785259 0.044223666 0.020905077 0.1673958 0.06410906 -0.33028153
-0.00057244825 0.18478593 -0.46862066 0.3660237 -0.13969088 -0.30419087 -0.19195506 -0.26975608
0.3003693 -0.124476746 0.18520659 0.16820498 0.094817616 0.3501226 0.61138296 -0.08569442
-0.14211921 0.19675538 0.42404523 -0.063983776 0.15512238 0.11899927 -0.16693185 0.23019466
0.14334172 -0.2825885 -0.29267085 -0.15296452 0.21448681 -0.32480627 -0.040863276 -0.2248928
0.17782094 0.113572896 -0.22377029 -0.08265166 0.35071853 0.039451092 0.04436409 -0.09165512
00000000: 0e02 ed3d 5631 633e cf20 983e 2fbb aebe
00000010: bf3c 493e aa39 513e 37e3 f93e 75d0 32bd
00000020: e75e fe3e ceb5 473e 939a 10be 5e18 973d
00000030: 6ad6 83be d38d 9f3e 835b 0abf 38ef c03e
00000040: 5c1d 1f3d a405 9ebe a493 c1be ce53 a93d
00000050: 1b6d 993e 1d87 2cbe 016f 60be 5408 afbe
00000060: 7971 fabd b82f a53d eb86 943e 955d 1e3e
00000070: 8968 93be fa64 85be 1664 3e3e 973c ae3d
00000080: b85b 023f 35ad 59be c601 663d dbe3 2b3e
00000090: 3f58 e93e b28e e9bd 1978 653e 4719 3fbf
000000a0: e342 4d3e 6d0a 53be 8f5b 9b3e a5cf babe
000000b0: 909c 553d 5ad7 143e b1aa 47be ff63 4abd
000000c0: 18c3 56be ba28 4d3e 8d68 2d3e 22e2 0f3f
000000d0: bcea 8ebe 511a a53e 7abb b5bd a985 ab3e
000000e0: 1e52 5a3d a5ef 943e f78e e3be d247 5e3e
000000f0: a8f7 df3d a8bf 023d 1f88 623e 5544 34be
00000100: 6192 34be 5a15 93be 5967 01be 72bf 4e3e
00000110: b0bc ef3d a620 6e3e 1dbf dbbc 3371 033f
00000120: d813 563e 5cbd eebd 17f9 f83e ffca da3e
00000130: 3164 a33e e92a 1cbe d2e5 72be 72f7 aebe
00000140: a879 9fbe 6257 533e c014 5fbe e023 353d
00000150: 2041 ab3c ce69 2b3e 9c4b 833d a91a a9be
00000160: 5a10 16ba 8638 3d3e 0cef efbe 7567 bb3e
00000170: 200b 0fbe e8be 9bbe de8f 44be 781d 8abe
00000180: 01ca 993e aaed febd cca6 3d3e ed3d 2c3e
00000190: bd2f c23d 4543 b33e 9883 1c3f 8e80 afbd
000001a0: b387 11be 3e7a 493e 751c d93e ed09 83bd
000001b0: 67d8 1e3e e4b5 f33d 2ff0 2abe 26b8 6b3e
000001c0: 2cc8 123e 71af 90be f4d8 95be bba2 1cbe
000001d0: 6ea2 5b3e 024d a6be 4060 27bd 4c4a 66be
000001e0: b116 363e e898 e83d 0a24 65be 4645 a9bd
000001f0: 6191 b33e 7897 213d 1fb7 353d aeb5 bbbd

decoder.0.bias f4 [16]
0.09735807 -0.04787035 0.10788127 0.15919407 0.026150804 0.2832374 0.014842205 -0.28253517
0.17209917 0.12956312 0.008054465 -0.011294091 -0.10644248 -0.011381381 0.011381298 -0.16157891
00000000: ab63 c73d b313 44bd dbf0 dc3d c503 233e
00000010: 363a d63c 7e04 913e b82c 733c 73a8 90be
00000020: c43a 303e 32ac 043e e0f6 033c da0a 39bc
00000030: 84fe d9bd f978 3abc a078 3a3c f174 25be

decoder.2.weight f4 [7, 16]
-0.17408411 0.19507512 -0.0792116 -0.038414445 -0.039700065 0.24162994 0.12571351 0.18328206
-0.43029222 0.44169235 -0.12801132 -0.1010001 0.003940947 0.35307893 -0.14711583 -0.006150387
0.0026031048 -0.020387612 -0.017362082 -0.21762863 0.58546793 -0.07950755 -0.02211486 0.065760046
0.021941995 0.043986734 -0.04732865 -0.04073366 0.05556014 0.17957485 0.03910142 0.088674225
0.33835524 0.3185605 0.050966337 -0.026961435 -0.014876102 0.15468945 -0.15110621 0.16048983
-0.107869454 -0.33568132 0.0868043 -0.021141969 0.29266316 -0.042211417 -0.23118186 -0.15897132
0.09818049 0.01417597 -0.074796245 0.16704665 9.2362694e-05 0.1291091 0.09263548 -0.13867074
0.019666992 0.0073255864 -0.17981288 0.074599996 -0.12819374 -0.2540141 0.22418863 -0.19098966
-0.31046522 0.71933395 -0.08236225 -0.112609155 -0.004482324 -0.40520605 0.29853538 -0.0617036
0.2687295 -0.24637176 -0.2406336 0.2911339 0.067441724 -0.77736 -0.16705495 -0.18462625
-0.043919947 0.04404749 -0.04534471 0.25845703 0.45759174 0.065622486 0.17098409 -0.023880763
0.06364513 -0.394218 0.21365282 -0.07196006 -0.21195959 0.2661851 0.18794614 -0.08198051
0.22419894 -0.53539336 -0.1993916 0.14004537 -0.0063511473 -0.5136257 0.37905994 -0.15105538
0.27122703 0.015283309 0.019477308 0.0016648384 0.3028527 -0.06289544 -0.08330253 0.054776188
00000000: 1b43 32be c6c1 473e b139 a2bd 7758 1dbd
00000010: 899c 22bd d76d 773e 0bbb 003e 4bae 3b3e
00000020: 434f dcbe 8025 e23e 6615 03be 24d9 cebd
00000030: 0f23 813b c3c6 b43e 88a5 16be 3089 c9bb
00000040: da98 2a3b ec03 a7bc ed3a 8ebc 0ada 5ebe
00000050: 3ae1 153f dbd4 a2bd 392a b5bc 34ad 863d
00000060: b3bf b33c 6f2b 343d b0db 41bd 57d8 26bd
00000070: 0893 633d 78e2 373e d028 203d d59a b53d
00000080: e63c ad3e 5d1a a33e 14c2 503d 3ade dcbc
00000090: e5ba 73bc e966 1e3e 96bb 1abe 7257 243e
000000a0: a9ea dcbd 6cde abbe 74c6 b13d ec31 adbc
000000b0: f2d7 953e e1e5 2cbd f0ba 6cbe 61c9 22be
000000c0: da12 c93d 5442 683c c62e 99bd 470e 2b3e
000000d0: d8b2 c138 2d35 043e acb7 bd3d b4ff 0dbe
000000e0: ac1c a13c 790b f03b de20 38be e2c7 983d
000000f0: 3845 03be 230e 82be b491 653e cb92 43be
00000100: 4cf5 9ebe 4526 383f 8aad a8bd a19f e6bd
00000110: 75e0 92bb 2b77 cfbe a1d9 983e eabc 7cbd
00000120: ea96 893e e148 7cbe a868 76be 810f 953e
00000130: e31e 8a3d 1101 47bf 7410 2bbe aa0e 3dbe
00000140: 67e5 33bd 246b 343d 60bb 39bd 7b54 843e
00000150: 7749 ea3e 1565 863d 7416 2f3e 97a1 c3bc
00000160: 6158 823d f1d6 c9be cec7 5a3e cc5f 93bd
00000170: ef0b 59be 6a49 883e f474 403e 66e5 a7bd
00000180: 6894 653e 8a0f 09bf 502d 4cbe 0e68 0f3e
00000190: 491d d0bb f97c 03bf 2514 c23e 43ae 1abe
000001a0: 45de 8a3e d866 7a3c e08e 9f3c b536 da3a
000001b0: 820f 9b3e 53cf 80bd 849a aabd ff5c 603d

decoder.2.bias f4 [7]
-0.0614948 0.046713676 -0.060764737 -0.0942883 0.24139829 -0.048013095 -0.042793334
00000000: f9e1 7bbd d756 3f3d 72e4 78bd 391a c1bd
00000010: 1d31 773e 61a9 44bd 1048 2fbd
