large_lstm_classifier.pt (torch, 282237 bytes, 5 tensors)

lstm.weight_ih_l0 f4 [512, 6]
000000 61 22 19 bd cd 8c 41 be d5 3e c2 3d 83 de 01 3d
       -0.037386302 -0.18901367 0.094846405 0.031706344
000010 03 22 95 3e bf 0d 9c 3d 74 d4 15 3c a5 13 16 3d
       0.2912751 0.07619809 0.009144891 0.03663983
000020 28 a5 1e 3d 09 ff 09 3e a2 58 8d bc 33 af b0 3d
       0.038731724 0.13476194 -0.017254177 0.086271666
000030 40 6c 5e bd f3 c5 c0 3d 3c bc c3 bd 42 3b 38 be
       -0.054302454 0.09412756 -0.09557387 -0.17991355
000040 68 d7 99 bc 53 c2 9f bd eb 79 2a 3c 47 de 21 3d
       -0.018779472 -0.07800736 0.010405044 0.03951862
000050 d3 b6 21 3d 6f 9e 10 3e d6 f7 88 3d 83 20 b5 3c
       0.039480995 0.14122938 0.06687896 0.02211023
000060 3f de df 3c 43 25 15 3b cf c6 f9 bd 62 c0 88 bd
       0.027327655 0.0022757805 -0.12196123 -0.06677319
000070 ca 5e 67 3c 20 8e 3a bc 7c 45 98 bb 99 87 0d 3e
       0.014121721 -0.011386424 -0.004646955 0.13821258
000080 35 91 03 3d 1f 15 1c 3e aa 05 23 3e f2 d8 3b 3d
       0.032120902 0.15242432 0.1592013 0.045861192
000090 7b 13 8d 3d 66 be 96 3d 7c 82 41 bd af ad 7f 3c
       0.06888481 0.07360534 -0.04724358 0.015605374
0000a0 75 2d ce 3d c4 6c d6 3d c0 3c ac 3d 30 69 5d 3d
       0.10067264 0.10469964 0.08410025 0.054055393
0000b0 57 6b de bd cb 10 aa bd 87 de d1 3d f2 1d 56 3d
       -0.10860317 -0.08303984 0.10247522 0.05227465
0000c0 ac 61 7c bb e4 d6 5e 3d 64 bb 55 3d 62 f7 0c 3e
       -0.0038510365 0.054404154 0.052180663 0.13766244
0000d0 0e 12 12 3d fa ab 10 3c 82 05 6d 3d ff 74 df bc
       0.03566175 0.008830065 0.05786658 -0.027277468
0000e0 c5 61 4c bc 59 5a 31 3e 87 1e 05 bd d5 3a bf 3d
       -0.012474482 0.17319621 -0.032499816 0.09337393
0000f0 f8 1b d7 3d ce 4e 96 3d 92 bd b8 bc 67 9d 3e be
       0.105033815 0.073392496 -0.022551332 -0.18614732
000100 0f 51 f9 3d 89 d2 c1 bc 7d 21 56 3d 6a f4 4a 3e
       0.12173664 -0.023659961 0.05227803 0.19819799
000110 ce 9a 96 3d 87 d6 04 3e 07 00 24 3e 79 06 a9 bb
       0.073537454 0.1297246 0.16015635 -0.0051582423
000120 2e e4 25 bd 82 80 d4 bc 10 d8 a3 3c 15 76 77 bd
       -0.040500812 -0.025940184 0.020000488 -0.060415346
000130 ce 84 bb 3d f8 43 8f 3d 52 f9 77 3d 57 d6 10 3d
       0.0915619 0.06995386 0.060540505 0.03536066
000140 18 62 32 bd 14 19 f4 3d e5 44 dc 3d bf d0 da bb
       -0.04355058 0.11918846 0.10755328 -0.0066777165
000150 01 43 22 3d 5d 6c 63 3d 2a 5f 36 ba d7 b9 ba bd
       0.03961468 0.055523265 -0.00069569296 -0.091174774
000160 8e 94 09 3d 78 a8 52 bc 24 28 d2 bd 6d f2 2c 3d
       0.03358894 -0.012857549 -0.102615625 0.042223383
000170 74 bc 22 be 99 95 79 be 82 f8 43 3e 73 a2 ad 3d
       -0.15892202 -0.24373473 0.19137767 0.0847825
000180 2d 25 34 3d 31 a8 31 3e 92 bc 53 3d 9a c7 3d 3d
       0.043980766 0.17349316 0.051693507 0.046332933
000190 b6 5c b3 3d 12 f0 a1 3c 7d fd 94 bc 41 d8 16 3e
       0.087579176 0.019767795 -0.018187279 0.14730932
0001a0 76 fe 5e 3d b4 82 24 3e d7 fd d0 3c 21 04 a8 bc
       0.05444189 0.16065484 0.025511665 -0.020509781
0001b0 6c cd 31 bd 1b cd b3 3d d1 4e 23 3d 23 b9 89 3d
       -0.043408796 0.08779355 0.039870087 0.06724765
0001c0 ca 7d b1 3d 71 83 2c 3c 2e a7 cc 3d 34 3f 35 3e
       0.086665705 0.010529385 0.099928245 0.17699891
0001d0 37 01 a2 3c c3 af b0 bd 76 a9 c1 3a 48 af 96 3c
       0.01977597 -0.08627274 0.0014775235 0.018394127
0001e0 3b 8f fe 3c 0a 60 b7 3d ef 51 06 be b3 d1 f5 bd
       0.031074157 0.08953865 -0.13117193 -0.120028876
0001f0 69 84 01 3e 89 05 3a bd 45 12 5e 3d 10 57 83 3e
       0.12648167 -0.045415435 0.054216642 0.2565236
000200 35 cd 84 3d 4f a0 72 3d 98 a0 c3 3d 67 b4 24 3d
       0.06484453 0.059234913 0.09552115 0.040211108
000210 98 9a d1 3c f2 9f 01 3e 57 43 72 3c 30 e8 31 bc
       0.025586411 0.1265867 0.014786563 -0.0108585805
000220 a6 74 d8 3c 70 b4 3f 3b 18 1b d9 3b e4 e5 8d 3e
       0.02642281 0.0029251836 0.0066255443 0.27714455
000230 37 88 52 3c d2 ff f6 3d e4 fa 35 3e f2 59 3d 3c
       0.012849859 0.120605126 0.17771488 0.011557089
000240 36 f7 53 bd 3b 79 6b 3d 99 e6 f6 bd 74 ab cf bd
       -0.05174943 0.05748866 -0.12055702 -0.10140124
000250 c4 c2 8f bc 85 d0 82 bd d0 21 ee 3d d5 46 30 bd
       -0.017548926 -0.06387428 0.11627543 -0.0430363
000260 f2 a9 a2 3d d2 62 85 3d ad 4f a4 3e 44 ce 93 3d
       0.07942571 0.06512989 0.32092038 0.072170764
000270 50 40 3c bc 41 65 ae bc 50 ec 0b bd 30 01 f0 bd
       -0.011489943 -0.021288516 -0.034160912 -0.117189765
000280 d5 ed 63 3d 36 67 af 3d 1f 2c 5c bd 1b 30 89 3d
       0.055646736 0.08564608 -0.053753015 0.066986285
000290 c4 aa e4 bd 49 c2 27 be 6c 44 eb bc 23 b9 8e bd
       -0.111653835 -0.16382708 -0.02871915 -0.06968906
0002a0 fc 42 78 bd 55 45 ab 3c 9f cc 86 3d cb 67 7a 3b
       -0.060610756 0.020907084 0.06581997 0.0038208838
0002b0 77 35 cb 3d f4 7e 3f bd b1 74 47 bd ea 00 c9 3d
       0.09922307 -0.04675193 -0.04869527 0.098146275
0002c0 a6 41 05 be e8 10 62 be 54 93 35 3d 6c 2e 21 bd
       -0.13013324 -0.22076762 0.044329956 -0.039350912
0002d0 66 a9 81 3e 6d da 20 bf b2 1b 71 3e 40 b4 bd 3d
       0.25324553 -0.6283329 0.23545721 0.092628956
0002e0 f5 3e 89 3e e9 9e 1d 3e b5 6e 25 bd 42 c0 f3 3d
       0.26805845 0.1539265 -0.04038878 0.11901905
0002f0 8f 95 fb 3c c1 9b ce 3d fb a6 d5 3d 22 a7 a6 bd
       0.030710964 0.100883015 0.104322396 -0.08137347
000300 ed d1 c2 bc 5a f0 21 3e c1 6b 9b 3d 5b ab 42 3d
       -0.023781741 0.15814343 0.07588912 0.0475267
000310 c9 28 e9 3c ab a1 cb 3d 58 ab 7b bc ac de 04 3d
       0.02846183 0.09942945 -0.015360676 0.03243892
000320 3b 50 7d bc e2 4a 4a be c4 e7 24 3e b0 8d ce 3c
       -0.015461023 -0.19755128 0.16104037 0.025214046
000330 e5 f5 98 3c c0 b6 63 3d ef 35 93 3c e0 a6 5f be
       0.01867194 0.055594206 0.017970053 -0.21841002
000340 7e fd b2 3d a7 44 ce bc 94 35 36 3d 99 18 c6 3e
       0.08739756 -0.02517922 0.04448469 0.38690642
000350 e4 d7 da 3c c6 6e 9e 3c 05 51 d2 3c c4 bf dc 3d
       0.026714273 0.01933993 0.025673399 0.10778764
000360 05 cd 6d 3d 4d 41 ef 3d 08 4e 37 bd 48 07 7b ba
       0.05805685 0.11682377 -0.04475215 -0.0009575975
000370 bf 8f de 3d e2 6b a1 3d 98 ad 9f bd 0b 35 b5 3d
       0.10867261 0.07881905 -0.07796782 0.08848008
000380 f5 7a 73 3d a1 56 06 3d 75 5d d6 3d 24 2d 06 3d
       0.059443433 0.03279746 0.10467044 0.032757893
000390 eb 63 48 3c 5f af 15 3e 75 e1 47 bc 1e 2a 63 be
       0.012230854 0.1461768 -0.012199749 -0.22184035
0003a0 3c ff 16 3e c2 9e 9f 3d 43 58 52 3c 32 c3 be 3d
       0.14745802 0.077939525 0.012838426 0.09314574
0003b0 2f b0 a3 3d e5 0e 07 3d b6 8f c7 3d b7 7b 10 bd
       0.07992589 0.03297319 0.097442076 -0.035274234
0003c0 55 f9 d3 3d 59 7d 9b bb 82 af f1 3c e7 91 91 bd
       0.10350291 -0.004745167 0.029502634 -0.07107907
0003d0 56 7c 28 3e 17 a0 8d 3c f7 fa 91 3d cc c2 96 3e
       0.1645368 0.01728825 0.07127946 0.29445493
0003e0 ed 29 01 3d 2f e4 f2 39 65 3b b8 3d 20 dc 0e bd
       0.031534124 0.00046327847 0.089957036 -0.034877896
0003f0 d7 3e 9d 3d 31 62 ae 3d 02 1d 22 bd ee f6 b7 3d
       0.076780014 0.08514822 -0.039578445 0.08982645

lstm.weight_hh_l0 f4 [512, 128]
000000 e3 71 a7 bc 0b b0 53 3c ad 8c bb 3d 4a 10 0f be
       -0.020440048 0.01292039 0.09157691 -0.13971058
000010 b4 7c aa bc 43 6f ef 3c 18 ef 05 3e f5 5d 4c 3d
       -0.020811416 0.029227858 0.13079488 0.049894292
000020 f0 4f 28 3d 91 5f 2b 3d 30 5b e3 bd 4b 5b 09 be
       0.04109186 0.041839186 -0.11101377 -0.13413732
000030 04 81 4e bc 4e f6 75 bd 70 5a 89 bd ed 1a 6d bc
       -0.012604002 -0.060049348 -0.06706703 -0.014471752
000040 c7 3a b2 3d 4f bd 86 bd f3 57 cd 3b 54 65 2b bd
       0.08702617 -0.065790765 0.006266588 -0.04184468
000050 ba 3a 61 bd e7 22 4d bd d5 e2 26 be b0 5a 4a 3e
       -0.054987647 -0.050082114 -0.16297467 0.19761157
000060 23 22 12 bc 7b b1 24 bc 2d b2 01 be 28 0a 8b 3c
       -0.008919272 -0.01005208 -0.12665625 0.016972616
000070 dd 71 47 bc 03 7d 3e bd 31 b3 cb 3d 45 25 be 3d
       -0.012173143 -0.04650594 0.099462874 0.09284452
000080 61 7c 0e bd 6d 2a 68 bd 5b d4 69 3d d5 00 3c 3d
       -0.034786586 -0.056681085 0.057087284 0.04589923
000090 f5 21 87 3c c8 14 fd 3b fc ac d5 bc a0 85 00 bd
       0.016495684 0.0077234246 -0.026083462 -0.031377435
0000a0 af 6d 42 bd e0 59 13 3e 59 95 e7 3d ba b9 02 bb
       -0.047467884 0.14389753 0.11307783 -0.0019947127
0000b0 f5 ba 92 bd 25 97 48 3d de fb 5c bd 13 78 19 3c
       -0.071645655 0.048972268 -0.053951137 0.009367007
0000c0 13 13 d6 3d 52 05 9b 3d 28 d0 d6 3d 1c 75 24 bd
       0.10452857 0.07569374 0.104889214 -0.040150747
0000d0 64 9d a7 bc a3 11 87 3c 3d 90 2d bd 2b 94 24 3e
       -0.020460792 0.016487902 -0.042373884 0.16072147
0000e0 8a 46 fd 3d 9e 30 14 3e a3 b2 ed bc 53 70 e3 3d
       0.1236697 0.14471671 -0.029015845 0.111054085
0000f0 7c d9 5e 3d 33 cc 59 3d 71 c7 67 3d 94 e3 fe 3d
       0.054406628 0.053173255 0.056586687 0.12445751
000100 5f 68 bb 3d c1 d0 f2 bd 76 c1 02 be ac e8 43 3e
       0.091507666 -0.11856223 -0.12769112 0.19131726
000110 e4 60 bc 3d 4e 01 0d 3e 3b ee cc 3c 70 52 1e 3e
       0.09198168 0.13770029 0.02501594 0.15461135
000120 30 ca 0a bd 4f 4f 03 be 98 59 10 3e fb bc 22 bd
       -0.033884227 -0.12823223 0.14096677 -0.039731007
000130 53 30 8d bd 17 c2 a9 3c 9b d2 dd 3c 54 04 28 3e
       -0.06893983 0.020722432 0.027077964 0.16407901
000140 bf fe 31 be 1e df 29 3e 74 9a 0e bc 62 75 08 3e
       -0.17382334 0.16589019 -0.008703817 0.13326028
000150 56 94 90 3c 20 28 f6 3c 1b 32 13 be 32 06 0e be
       0.017648857 0.03004843 -0.14374582 -0.13869551
000160 52 0d cf bd d0 36 de 3d a3 7b a1 bd d8 19 df 3d
       -0.101099625 0.108502984 -0.0788491 0.10893601
000170 fa 16 95 3d 05 0a 1f 3d 65 b0 0f 3e 8d 84 95 3d
       0.07279773 0.038827915 0.14032133 0.07300673
000180 f2 5f b1 bd 71 1b 0a 3b 06 1d ed 3c ef 07 83 3c
       -0.08660878 0.0021073485 0.028944504 0.015994994
000190 bb 39 d1 bc e9 da 38 be b6 12 51 3d 5c ac 41 bd
       -0.025540223 -0.18052258 0.051043235 -0.047283515
0001a0 92 3f 9d bd 98 1c 8c 3d e2 11 1c be 66 d6 04 be
       -0.07678141 0.06841391 -0.15241197 -0.12972412
0001b0 4a df 23 3d 18 e5 7b bd 5f fd 43 be f5 e8 f0 3c
       0.040007867 -0.061497778 -0.19139622 0.029407958
0001c0 13 ba 81 bc 00 d4 65 3d 49 5e 8e 3d 36 e2 81 bd
       -0.015835797 0.056110382 0.06951577 -0.063419744
0001d0 76 ab bd bd 16 48 88 bc 2b 1f 6a bd 34 f1 80 bd
       -0.09261219 -0.016635936 -0.05715863 -0.06296006
0001e0 55 c3 3d bd 8e 29 77 3d 54 1e c5 3d b4 d1 f8 3d
       -0.04632886 0.060342364 0.09624925 0.12149373
0001f0 52 57 38 bd 56 dd 58 bd 5b d2 6c bd 27 ca 50 3c
       -0.04500515 -0.052945457 -0.057817798 0.012743509
000200 52 0b 84 3d c0 e3 c5 3d a4 d1 9c bd 2e c0 3d bd
       0.06447472 0.096625805 -0.07657173 -0.046325855
000210 6b 23 7d 3d 0a 37 29 3d d0 82 71 3d 59 76 bd 3c
       0.061801355 0.041312255 0.058962643 0.023127722
000220 aa 1f 0b 3e e9 a6 ae 3d e5 7c b9 bd 64 9b 0e 3c
       0.13586298 0.08527929 -0.09057025 0.00870404
000230 80 d7 36 3e be fe b1 3c dd d4 28 bc c1 34 d6 bd
       0.17855644 0.021727916 -0.010304657 -0.10459281
000240 33 72 f2 3d 79 14 fd bd 6c 64 16 3d 42 2d 1c be
       0.11838188 -0.123574205 0.036716864 -0.1525164
000250 51 f0 79 3d 5a c1 80 3c 4c a3 8b ba b0 55 a3 3d
       0.0610202 0.015717197 -0.0010653525 0.07975328
000260 b8 57 d9 bd 88 3d f7 bd f9 a4 3b bd e8 e2 07 be
       -0.10612434 -0.12072283 -0.045811627 -0.13270152
000270 1b 11 5b bd b7 7a 46 bc 65 cc 50 be f0 6f d6 bc
       -0.05348311 -0.012114218 -0.2039047 -0.026176423
000280 86 d6 2a bd a7 36 c2 bd ef fe f6 bd b4 3c d0 3b
       -0.04170849 -0.0948308 -0.120603435 0.0063548926
000290 8d 89 06 3d c4 64 e6 3c 26 d0 e9 3d b7 f5 dc bd
       0.032846022 0.02812422 0.11416654 -0.10789054
0002a0 3b 7a 10 be 1c 4f 0e 3c 52 bd 00 3e 46 ef b8 ba
       -0.14109127 0.008685853 0.1257222 -0.0014109395
0002b0 c8 6d e6 3c 1c a9 c9 bc be 7a 73 3d 02 dd 8c 3d
       0.02812852 -0.02461677 0.059443228 0.068780914
0002c0 33 a5 32 be 89 9f 1a 3d 7c d8 03 bd 81 92 dd 3c
       -0.17445831 0.0377498 -0.032188877 0.027047398
0002d0 ee b1 ba bd 0c 36 49 3d 8c 9e fc 3c 69 79 cc bb
       -0.09115969 0.04912381 0.03083732 -0.006240059
0002e0 52 98 e6 3d db 4e 9c bc 68 7f ae bd 17 43 53 3d
       0.112595215 -0.01908057 -0.085203946 0.051577654
0002f0 4a 38 75 3d 19 2f 3f 3d f9 81 8c 3d 97 61 b8 bc
       0.059868135 0.046675775 0.06860728 -0.022507472
000300 2c 2a c2 3d 36 05 af bb 6c 7e eb bd 05 a9 81 3d
       0.094807 -0.0053411974 -0.114987224 0.06331066
000310 57 2a 62 bd 16 78 ac bb fc 39 75 3c d1 ed 4c bd
       -0.05521616 -0.005263339 0.014967438 -0.050031487
000320 07 9d f0 3c 0a f8 29 bc be ad 2a 3d ae 73 34 3d
       0.029371751 -0.0103740785 0.0416696 0.044055633
000330 3c 7f 47 bd 99 d1 a8 3d e0 c0 ba bd 05 d3 1f 3d
       -0.048705325 0.082431026 -0.09118819 0.039019603
000340 ec 55 00 be d5 9b e8 3d bb 09 df bd 3e 99 cd 3d
       -0.12532777 0.113578476 -0.10890528 0.10038994
000350 e8 94 21 3d ad fa 96 3d 7a 24 1d bd 51 d4 37 bb
       0.03944865 0.07372031 -0.038364865 -0.0028050134
000360 47 9b ce 3b 09 b2 e0 3d 8e d9 b1 bd bc 6c a5 bc
       0.0063051316 0.109714575 -0.086840734 -0.02019345
000370 10 89 64 3d a5 11 7f 3d b2 ea 39 3c c5 f1 2d 3d
       0.055794775 0.062272687 0.01134746 0.042466898
000380 38 25 90 bd dd 2b c1 3c 3c 33 ac 3d 1c 67 bd bd
       -0.07038349 0.023580486 0.0840821 -0.09248182
000390 6c 7f e4 bd 91 f0 dc bd 4a 05 86 3c 9e a7 c0 bd
       -0.11157116 -0.10788072 0.016359944 -0.094069704
0003a0 69 88 8e 3d 6d a4 81 3d fa dc c2 bd e6 ba 80 3c
       0.06959612 0.0633019 -0.09514804 0.01571412
0003b0 59 f8 27 bd 8b 1a 11 3e 5f 58 8a bd 9c d4 71 3d
       -0.041008327 0.14170282 -0.06755137 0.05904065
0003c0 d0 95 bd 3d 6f f9 bc ba 27 3c d6 3d 6c 47 b0 bd
       0.0925709 -0.0014417599 0.10460692 -0.08607373
0003d0 ed 68 1e bd 10 34 89 bd b4 00 be 3c e9 db 82 bd
       -0.038674284 -0.06699383 0.023193695 -0.06389601
0003e0 47 09 88 bd 3b ad ab 3d a4 ec c0 3d dc 82 84 3d
       -0.066423945 0.083826505 0.094201356 0.06470272
0003f0 79 c5 6c bd a7 ad e8 3d b3 b7 a4 bd fe b1 96 bc
       -0.057805512 0.113612466 -0.0804285 -0.01839542

lstm.bias_ih_l0 f4 [512]
000000 41 8a 35 bd 18 f7 f8 3c 53 ba a9 bd d1 86 08 3d
       -0.044321302 0.030391261 -0.08287492 0.033331696
000010 a7 c8 d6 3c 17 66 30 bd 7d 71 97 3d 65 c3 c9 3d
       0.026218725 -0.04306611 0.07394693 0.09851722
000020 f2 ee 37 bc e8 42 bc 3d fa 77 63 3d 0b e6 0c 3d
       -0.011226403 0.09192449 0.05553434 0.034399074
000030 63 91 ef bc e4 42 56 3d 71 95 89 3d 10 92 d0 bd
       -0.02924413 0.052309886 0.06717957 -0.10184109
000040 6e 00 a6 bc ab ea a7 3c 36 a2 6c 3d 82 7d 2b 3b
       -0.020263877 0.02049764 0.057771884 0.0026167338
000050 c5 36 7a 3d 9c 90 97 3a 70 1f 0e bd 41 58 e0 ba
       0.06108739 0.0011563483 -0.03469795 -0.0017116145
000060 08 8c a5 bc ca 3f 9d bd e0 c7 e4 3d 67 57 76 bc
       -0.020208374 -0.076781824 0.11170936 -0.015035487
000070 8e b0 04 bd 08 d8 e5 bc 96 e6 f8 3d cc 5f e8 bc
       -0.03239494 -0.028057113 0.12153356 -0.028365992
000080 91 1c e8 3d d6 b0 27 bc 14 9f 5a bb 47 8c 29 3d
       0.113335736 -0.010235032 -0.0033358978 0.041393545
000090 3a 4a a7 3d 04 75 d3 bc b1 b6 db 3c 42 97 02 3e
       0.081684545 -0.025812633 0.026820512 0.12753013
0000a0 19 33 02 3d fc 57 d8 bc 11 47 f6 3d d7 f6 ca 3c
       0.03178701 -0.026409142 0.120252736 0.024775906
0000b0 26 68 ca 3d a8 f7 d1 3d 8d 9f c8 3c 5a f6 91 3d
       0.09883146 0.10252315 0.024490142 0.07127066
0000c0 7e 7c a0 bc 7a 95 b3 3c 2c 99 25 3d 7d 0e 17 3d
       -0.019590613 0.021921862 0.04042928 0.03687905
0000d0 65 64 4d 3d d1 37 cd 3b 51 18 8c bd 76 f7 29 3d
       0.05014457 0.0062627573 -0.068405755 0.041495763
0000e0 e6 c9 e0 3d b0 f7 aa 3d c8 38 3c 3c c7 b2 43 bd
       0.10976009 0.08348024 0.011488147 -0.047777917
0000f0 27 c4 a0 3d f1 ce f3 bc 11 ff ca 3d ea be 0c bd
       0.07849913 -0.029761763 0.09911931 -0.034361757
000100 03 77 fb 3b f2 a6 b7 3d b4 1f 3d bd 5f 44 7d 3d
       0.0076740994 0.08967389 -0.046172813 0.061832782
000110 fd 0b 00 bd 50 fe 82 3b 1a 6c b9 3d 81 59 bd 3d
       -0.031261433 0.0039976016 0.09053822 0.09245587
000120 66 f6 d9 3d 5c 69 5d bc a9 3f 05 bc 8f ae ba bc
       0.106427 -0.013513889 -0.008132854 -0.022788314
000130 aa d5 89 3d af 34 1c bd 25 39 00 bc 06 32 d2 3d
       0.06730206 -0.03813618 -0.007826124 0.102634475
000140 9f 04 95 3c 40 b6 14 3d ff 1e d6 3d ee b8 32 3c
       0.01819068 0.03630662 0.10455131 0.0109083485
000150 4a 82 8b 3d 25 09 12 3d 1f a9 a8 bc 92 77 b1 3d
       0.0681196 0.035653252 -0.020588456 0.08665384
000160 49 99 63 bd 83 ac 8a 3d c4 29 3e bd 36 79 0e bd
       -0.055566106 0.06771185 -0.04642655 -0.034783565
000170 2b 76 25 bd 73 e8 b1 3d 91 c6 32 3d f4 b5 2e bd
       -0.040395897 0.08686914 0.0436464 -0.042653993
000180 71 5a 5c 3d 86 11 96 3d 49 8a b3 3d b5 ca e8 bc
       0.05379719 0.07327561 0.0876661 -0.02841697
000190 a0 7c 8c 3d 6e bb ed 3c b4 c9 ea bc 34 43 c9 3d
       0.06859708 0.029020038 -0.028660633 0.09827271
0001a0 4e 8b 2f 3d da 05 bc bd 9c 0e 5d 3d f8 d3 e5 3d
       0.04285746 -0.091808036 0.05396901 0.112220705
0001b0 e0 db 91 3d bf ab a1 3c 6b 89 43 bd 8e 52 b1 3c
       0.07122016 0.019735215 -0.047738474 0.02164581
0001c0 3a 2c 78 bd ed 79 e2 bc de 9e 7e 3d 16 53 88 3c
       -0.060589053 -0.02764603 0.062163226 0.016641181
0001d0 fe b0 69 bd 27 26 94 3d ea 02 8b bb c5 8b 85 bb
       -0.05705356 0.072338395 -0.0042422907 -0.0040754997
0001e0 a7 54 03 3d b7 1f 98 3d 40 e7 d9 3d 36 b6 84 3d
       0.032063153 0.07427924 0.106398106 0.064800665
0001f0 1c cd 68 3c 06 30 88 bc ed 7f 27 3d d9 a6 bf 3d
       0.014209058 -0.016624462 0.040893484 0.093579955
000200 64 c9 a6 bd c5 e8 43 bd 24 aa 55 bd 9b 5c 5d 3c
       -0.08143881 -0.04782941 -0.052164212 0.013510848
000210 4b 96 e4 bc 9c d3 eb 3d 9a 6d e0 bc 88 58 b4 3d
       -0.027903697 0.11514971 -0.027396012 0.088059485
000220 d5 d1 07 bd 8b e1 1e 3d a7 5a 76 3a 6c 96 9c bc
       -0.033159096 0.038789313 0.00093976635 -0.019114695
000230 37 f6 e7 3c 90 c4 ad 3a de b7 bc 3d e6 03 2b bd
       0.028315647 0.0013257433 0.092147574 -0.041751765
000240 79 fb bb 3d f3 e6 9d 3d ca 6a 9f bb b2 12 a0 3d
       0.09178824 0.07710066 -0.004865025 0.07816066
000250 6e b6 dc 3d 81 5f 25 bd ad de d0 3d 4b d7 a4 3d
       0.10776983 -0.040374283 0.10198722 0.080488764
000260 b9 03 9c bb ba bd ad bc 83 5f c3 3d 8c 72 06 3d
       -0.004761186 -0.021208633 0.09539702 0.032824084
000270 e8 01 30 bd ac d1 35 3d 0b 32 09 3e ba 52 e5 bb
       -0.042970568 0.04438941 0.13397996 -0.006998387
000280 55 57 74 bc e6 7c ed bc 6b 52 51 3d 87 46 39 bc
       -0.0149134 -0.02899022 0.05110399 -0.011308319
000290 5b 19 28 3c d4 c2 47 bc b7 15 27 bc fb ae c7 3d
       0.010259951 -0.012192447 -0.010198048 0.09750172
0002a0 5e bf 76 3b 48 3c f1 3d 11 a9 96 3d 35 82 a8 bc
       0.0037650685 0.11779076 0.073564656 -0.0205699
0002b0 9f b2 1a bd 2d 52 86 bc 1a 92 a0 3d e9 d2 08 3e
       -0.037768003 -0.016396606 0.07840367 0.13361706
0002c0 da e9 d3 bc d1 cf 59 bb 9d fc ff 3c 82 9c 86 3d
       -0.025868345 -0.003323544 0.031248385 0.0657282
0002d0 c8 f9 e1 3c 97 c9 c3 3d 38 f2 6e 3d f1 16 38 3d
       0.027584925 0.095599346 0.058336467 0.044943754
0002e0 c4 7f 3a bd 92 fa fe 3c 50 0f 05 bd 0d 5f bd 3d
       -0.045532003 0.03112534 -0.032485306 0.09246645
0002f0 d2 d1 7e 3d 6d 10 8f bc 2f 92 ec b8 f1 1a 85 3d
       0.06221182 -0.017463887 -0.00011280586 0.06499279
000300 d4 d2 03 bd 46 84 3c bd 4f 65 1a 3d 5d cd 97 3d
       -0.032183483 -0.046024583 0.03769427 0.07412217
000310 27 59 98 bc ff a7 8b 3d bb 29 08 3d f6 a0 8a bd
       -0.018597199 0.06819152 0.033242922 -0.06768982
000320 d0 90 2d bb d5 24 db 3d 13 06 e1 bc a0 7f af bd
       -0.002648402 0.107003845 -0.027468717 -0.085692644
000330 fa 54 0d 3c f1 3b 24 bc be 89 0c 3d e1 cf 4f 3c
       0.008626217 -0.010024057 0.03431105 0.01268384
000340 9d ba e5 3c f4 79 e7 3c 12 89 cf 3c c6 98 d7 ba
       0.028043086 0.028256394 0.025333915 -0.0016448728
000350 5d 41 df 3d 62 d1 3a bd 7f d3 76 3d 99 29 c9 bc
       0.10901139 -0.04560984 0.060260292 -0.024555968
000360 f2 91 8e 3c 88 ca 38 3c e4 99 d3 3d a1 27 d5 3c
       0.017403577 0.011278756 0.10332087 0.026019873
000370 ef 7d 34 bd 46 74 af 3d db 0c b1 3d b8 80 53 bc
       -0.044065412 0.08567099 0.0864503 -0.012909107
000380 63 24 88 bc 18 58 42 3d b9 28 70 3d 63 78 ed 3c
       -0.016618913 0.047447294 0.058632586 0.028988069
000390 73 20 59 bd c8 5d eb 3d e9 ef b1 3d 41 bd 93 3d
       -0.05300946 0.11492497 0.08688337 0.07213832
0003a0 5f ef c4 3c 3e 3b 3f bd ea 0d 0c bd db 6c 2a 3d
       0.024039922 -0.046687357 -0.034192957 0.04160772
0003b0 d3 92 e1 3c 3a 51 a5 3d 96 f3 69 3d fc cd 5b 3c
       0.027535832 0.08072133 0.057117067 0.01341581
0003c0 2d 17 18 bd 34 0d 2b ba 7f bf c8 3d dd 1c da bb
       -0.037131477 -0.00065251 0.0980215 -0.006656273
0003d0 10 83 d1 bc 8a e2 90 3d c4 86 9d 3d cb f4 ec 3d
       -0.02557519 0.07074459 0.0769172 0.11570128
0003e0 20 bd e0 3d 07 ea ad 3d b3 50 05 3e 3c 7f 9a 3d
       0.10973573 0.08491903 0.13019066 0.07543799
0003f0 33 93 99 3c 17 0b 8f 3d a2 db 61 3d 33 3a 9c 3d
       0.018746948 0.06984537 0.0551411 0.07628288

lstm.bias_hh_l0 f4 [512]
000000 6d d1 3b 3d 8f 5d a2 3c 60 07 0c bc 67 f1 a5 3d
       0.04585402 0.019820003 -0.00854668 0.081026845
000010 75 91 2c bd d6 94 b4 bc 53 e7 c5 3d 2e 6d 7d 3d
       -0.042130906 -0.022043627 0.09663262 0.0618717
000020 96 46 de bc 9f 0e 73 3d de 92 4b bd b3 14 21 3d
       -0.027133267 0.059340116 -0.04970061 0.03932638
000030 b4 4c 8e bd 28 c3 03 3e 7f d1 3c bd c0 8b b3 bd
       -0.06948224 0.12867415 -0.04609823 -0.087668896
000040 36 91 16 bd a2 b4 80 3d 84 e2 10 bc 0e 25 9c 3c
       -0.036759578 0.06284453 -0.008843068 0.019060638
000050 42 0f 9e 3d ff 8e 04 3e 6f 6c 82 3c 17 fc d8 3d
       0.07717754 0.12945174 0.015920846 0.10594957
000060 a3 d0 8b bd 00 b4 96 3d 3d bc 14 3d 14 bd e6 bc
       -0.06826904 0.07358551 0.03631233 -0.028166331
000070 9b 5c aa bd b2 a9 be 3d 13 a3 14 3e bf 46 26 3d
       -0.08318444 0.093097106 0.14515333 0.040594812
000080 ab e1 87 3d 8b 93 8a bd da 4d ae 3d df 69 c2 3d
       0.066348396 -0.06766423 0.08510943 0.094928496
000090 9d eb c5 3d 50 a9 70 3d 7c c6 24 3d 02 4f 11 bd
       0.0966408 0.05875522 0.040228352 -0.03547574
0000a0 33 73 b9 bb ca 64 f1 3c 09 1f a4 3d 97 b2 95 3d
       -0.005659485 0.029467005 0.08013732 0.07309454
0000b0 82 59 c6 3d 28 e4 bb 3d ba e5 69 bd dd 8f 3d 3d
       0.09685041 0.09174377 -0.05710385 0.046279777
0000c0 4e e3 84 3d d0 7a 91 3d ff 4b e8 3d bd cc 1d 3d
       0.064886674 0.07103503 0.1134262 0.03852533
0000d0 3f 9b be 3c 6a c6 f5 3d e1 ac a7 3d f0 b1 8b 3c
       0.023267386 0.12000735 0.08187271 0.01705262
0000e0 2b 9c 75 3d 1b a9 11 3c 75 3f 3a 3d 73 c7 70 bd
       0.059963387 0.008890416 0.045470674 -0.05878396
0000f0 4b 7a 84 3d 65 2f cd 3d 88 e7 2e bd b4 d4 db bc
       0.06468638 0.100188054 -0.042701274 -0.026834823
000100 58 0b a0 3c 3d 6b 22 3c 94 65 95 bb ed ab 7f 3d
       0.01953666 0.009913263 -0.004559228 0.06241982
000110 ab e2 22 3d cb 82 24 bb 9a 84 4b bd 4d 19 82 3d
       0.03976695 -0.0025102373 -0.049687006 0.06352482
000120 08 f3 8f bb 4a 9d ea bc a4 e1 1c bd 58 7d f8 3a
       -0.0043929853 -0.028639454 -0.038301125 0.0018958254
000130 ec d8 eb 3b a7 1e 81 3d 4a 11 3f 3d 19 5f 2e 3d
       0.00719749 0.063046746 0.046647348 0.04257116
000140 e3 c1 a0 3c 17 fd 26 bc c3 c8 1e bc 2c 95 b5 3b
       0.019623702 -0.010192177 -0.00969142 0.0055414643
000150 86 f5 88 3d d8 df 9b 3d 0d 94 04 3d 90 1b c2 3d
       0.06687455 0.07611054 0.032367755 0.094779134
000160 9c 5a b4 3c ab 66 97 3c 49 b9 82 3c e2 0d f1 bc
       0.022015862 0.018481573 0.015957491 -0.029425565
000170 fd df 9e bd 0a f2 58 3d fd c1 d4 3d a8 bb 0b 3d
       -0.07757566 0.0529652 0.10388563 0.03411451
000180 29 aa 10 3d 28 d3 05 3d 33 cd 86 3d 45 99 a9 3d
       0.035318527 0.032672077 0.065821074 0.08281187
000190 7e 53 e4 3d 06 f6 3a bb b2 30 e9 bc 2f 7c ce bb
       0.11148737 -0.002852799 -0.028465603 -0.006301425
0001a0 f9 ec dc 3b e0 66 96 3d 6c 0b 51 bc 5e 66 e5 3c
       0.0067421165 0.073438406 -0.012759071 0.028002914
0001b0 df 5c 4d 3d c3 1e c6 3c 73 4c 28 3d 3f 1c 65 bd
       0.050137397 0.02418459 0.041088533 -0.05593514
0001c0 92 4c 29 bd af 50 9a bc 39 b6 bb 3d 6c 5a c6 3c
       -0.04133279 -0.018837301 0.091656156 0.024213038
0001d0 eb 02 16 bd fb ac cc 3d ff 70 72 3b 21 a7 ae 3c
       -0.036623877 0.09993931 0.003699362 0.021319928
0001e0 80 dc f6 3d 8a cd f4 3d 02 34 a8 3d 04 e0 ec 3c
       0.12053776 0.11953266 0.08213045 0.028915413
0001f0 f9 62 f2 3d 37 8a 01 3d 98 fa c1 bc f2 ca 07 3d
       0.11835284 0.031625953 -0.023679063 0.033152528
000200 42 47 ed bc fd 7f e0 bc 45 2e ae 3d d7 7e 14 3d
       -0.028964642 -0.02740478 0.08504919 0.036253776
000210 29 6e 88 3b e0 84 03 3d 34 22 bc bc d9 23 97 3c
       0.0041635227 0.03210914 -0.022965528 0.01844971
000220 7f df d6 bd e7 3b c5 3d 14 28 fa 3d ea bf f9 bc
       -0.10491847 0.09630566 0.122146755 -0.03048702
000230 2d df e7 bb 57 78 ca 3b ef 2c 1c bd c2 a2 9f bd
       -0.007076165 0.0061788964 -0.03812879 -0.077947155
000240 8b 69 84 3d d8 bb 2b bc eb 03 91 3c dc 4c a3 3d
       0.06465443 -0.010481797 0.017702064 0.07973644
000250 5c ce 77 3c bf 4a d8 3d 05 5d ec 3d 5f 41 b8 3d
       0.0151248835 0.10561132 0.115411796 0.089968435
000260 b0 12 2f bd 0c 51 c4 3d 1d 6d 45 bd de e3 4d bd
       -0.04274243 0.09585771 -0.04819976 -0.05026614
000270 27 82 e1 bc ae 9e ab bc 0c 88 6f 3d 91 82 a5 3d
       -0.027527882 -0.020949688 0.058479354 0.08081544
000280 b4 1a e7 ba d1 9f 50 bd 6f 86 87 bc e3 84 d9 3d
       -0.001763186 -0.050933663 -0.016543595 0.10621049
000290 01 9d 7c 3d 54 cd 35 3b f6 c7 ab 3d 39 8d 09 3c
       0.061673168 0.0027740793 0.08387749 0.0083954865
0002a0 38 9c d1 3d e3 73 72 3c 0d 8a e4 3d a9 ba f9 3b
       0.102348745 0.014798137 0.111591436 0.0076211286
0002b0 b7 98 56 3c 2c d6 79 3d a8 f6 88 3d 4b c2 d1 3d
       0.0130979335 0.060995266 0.06687671 0.102421366
0002c0 38 d5 ba 3d 5f 73 2b 3d d3 aa 0d bd fd b1 43 3d
       0.091226995 0.041858073 -0.03458674 0.047777165
0002d0 9e ae ba 3c 77 a3 ee 3d 39 36 f6 3c 47 bd 00 bd
       0.022788342 0.11652272 0.030055152 -0.03143051
0002e0 5c 94 3e bd 96 ee 67 bd 32 d4 1d 3d 2e 32 0f bd
       -0.046528205 -0.056624018 0.038532443 -0.034959964
0002f0 97 c3 04 bc 00 cd 0f 3d a6 21 6c bd c3 22 f6 3c
       -0.008103273 0.035107613 -0.057649277 0.030045873
000300 1e 69 71 3d e4 33 4e bd 1b ec 07 3d 55 28 f7 bc
       0.05893814 -0.050342456 0.033184152 -0.030170599
000310 4c 85 bf 3d 5f 34 a3 3d ab f7 08 bd a3 ef 36 bd
       0.09351596 0.07968973 -0.03343932 -0.04466213
000320 58 80 03 3e 32 e0 ec 3c 27 9c 37 3c ce 1a 1e 3b
       0.12841928 0.028915498 0.011206663 0.0024124864
000330 d4 6c ef 3d cd 2d 28 bd 6e c4 47 bd 27 d3 ea 3d
       0.11690679 -0.041059304 -0.048771314 0.11466055
000340 bf 8c bd bc e2 ee 9c 3c 80 bc 17 bd c5 37 98 3d
       -0.023138402 0.019156877 -0.037045002 0.07432512
000350 17 5b 1c 3d 6e 06 ca 3d 35 cc db bc 03 f0 9b bb
       0.038172808 0.098645076 -0.026830772 -0.0047588362
000360 5e 4b a6 3c fe 95 d4 3d 03 1f ed 3d 5e 42 d9 3d
       0.02029961 0.10380171 0.11578181 0.10608362
000370 89 51 2a bd cc 99 85 3d f4 77 79 3c c2 5c b5 bc
       -0.041581664 0.06523475 0.015226353 -0.022138957
000380 8d 6e 58 3d ea a5 6a bd 08 29 48 3d d9 6a a1 bc
       0.052839804 -0.057287134 0.048867255 -0.01970427
000390 6f 89 5a bd 1e b8 be 3d 2f 55 90 3d ea 2f c1 b9
       -0.053353723 0.09312461 0.070474975 -0.00036847527
0003a0 37 0a d0 bc 30 75 6f bd cb 31 84 bc 74 46 83 bc
       -0.025395496 -0.058461368 -0.016137024 -0.016024806
0003b0 87 55 1b 3d 39 56 54 bd f8 98 83 bc 04 3e 4e 3c
       0.037923362 -0.05184004 -0.016064152 0.012588028
0003c0 da ad e5 3c a0 cd 92 bd 9b d8 88 bd 26 67 ec 3d
       0.028037 -0.07168126 -0.06681939 0.115431115
0003d0 3f 62 74 bd 2e 94 54 3d 62 aa db 3d 31 a5 20 3d
       -0.059664007 0.051899128 0.10725857 0.03922004
0003e0 24 9f cc 3c b3 0e 03 ba 56 6c 92 bc 9e 28 24 3c
       0.024978228 -0.0004999444 -0.017873924 0.0100194495
0003f0 2b 4b 2f bd b1 4d 29 bd ad 4c 2f bc 8b 51 06 3d
       -0.042796295 -0.041333858 -0.010699433 0.03279261

fc.weight f4 [1, 128]
000000 a0 14 d1 3d 15 bb 86 3d 33 fd cc 3d 96 db cd bd
       0.10209012 0.06578652 0.100092314 -0.10051648
000010 b4 7a 10 be 0d ef e7 3d 26 dd e9 3d 31 c9 95 3d
       -0.14109308 0.11324892 0.11419134 0.07313765
000020 09 cf 92 3d a7 83 19 3e e2 6a f9 bd cb b0 24 be
       0.07168395 0.14991628 -0.121785894 -0.16083066
000030 5b 13 e9 bd 8e a7 1d be 1b cb 1d 3e e3 ee 93 3d
       -0.11380645 -0.15395948 0.1540951 0.072232984
000040 b3 69 0d 3e f7 38 0a be f2 4d fa bd 96 af c2 3d
       0.13809852 -0.13498293 -0.12221898 0.095061466
000050 a7 f0 25 be 44 90 62 bd 09 fa d7 bd e3 10 cd 3d
       -0.16205083 -0.055313364 -0.10545737 0.100129865
000060 54 df 19 3e be 24 84 bd 67 74 b7 bd 57 c3 88 3d
       0.15026599 -0.064523205 -0.08957749 0.06677883
000070 53 af a4 3d 61 4f f3 bd c9 fc 09 3e 45 cf b3 3d
       0.08041253 -0.11880375 0.13475336 0.08779768
000080 af 29 13 be 79 b1 f7 3d 26 50 86 3d ea f6 11 3e
       -0.1437137 0.12094397 0.06558256 0.14254346
000090 70 3d c4 bd 04 61 08 be a1 21 c5 bd 33 b5 e9 bd
       -0.09582031 -0.13318259 -0.09625555 -0.11411514
0000a0 44 de 87 3d 66 cc d8 3d a6 dd 0c 3e f7 8a 8b 3d
       0.06634191 0.10585861 0.13756427 0.06813615
0000b0 5b 6e 04 be 65 15 0e 3e fa c0 b5 bd a8 ea 12 3e
       -0.12932722 0.13875349 -0.08874698 0.14347327
0000c0 62 1a f0 3d 61 2d 6a 3d 46 66 02 3e bc 19 de bd
       0.11723782 0.057172183 0.12734327 -0.10844752
0000d0 18 ac c9 bd 45 06 d3 3d d3 bf 54 bd 8a 26 07 3e
       -0.098472774 0.1030393 -0.05194075 0.13198295
0000e0 f3 31 d6 3d ee 9a 96 3d 7c 36 0a 3e 67 99 d4 3d
       0.10458746 0.07353769 0.13497347 0.10380822
0000f0 75 1b 25 be d3 43 2a 3e 4c e2 99 3d 1d f2 fe 3d
       -0.16123755 0.16627435 0.07513866 0.12448523
000100 2f 2e b7 3d 2c 00 71 bd 58 3c 20 bd ee f2 d7 3d
       0.08944356 -0.058838055 -0.03912005 0.10544382
000110 39 d1 f3 3d 4f c5 c2 3d 5c 41 d8 3d d7 1a 04 3e
       0.119051404 0.0951029 0.10559341 0.12900864
000120 2e 94 00 be b3 a7 24 be fb 25 97 3d ef 06 ac bd
       -0.12556526 -0.16079597 0.07380291 -0.0839976
000130 c7 84 04 be 97 a0 26 be 43 68 fa 3d ce 37 dc 3d
       -0.12941276 -0.16272198 0.122269176 0.107528314
000140 ae a2 dd bd 6b 2a ee 3d 09 9d ab bd 07 8a 0d 3e
       -0.10822044 0.11629184 -0.083795615 0.13822185
000150 e4 b0 31 be 31 72 c2 3d 68 18 34 bd fd 90 c2 bd
       -0.17352635 0.094944365 -0.043968588 -0.095003106
000160 88 c8 5c bd 06 84 da 3d 1e 11 db bd e3 c4 0e 3e
       -0.05390218 0.10669713 -0.10696624 0.13942294
000170 22 0a a0 3d 3e b7 d8 3d 27 58 d0 3d 7e ba dd 3d
       0.07814433 0.10581826 0.10173064 0.10826586
000180 b8 3c 08 be 75 ec 08 be dd 62 0b 3e 80 34 f1 3d
       -0.13304412 -0.13371451 0.13611932 0.11777592
000190 34 ae 01 3e 2d 32 95 bd 6a 3f 04 3e 1b de d0 bd
       0.1266411 -0.07284961 0.12914816 -0.10198613
0001a0 e3 1c d7 bd ef 91 99 bd 73 0c 09 be 10 bb 0a be
       -0.105035566 -0.07498538 -0.13383655 -0.13547921
0001b0 d8 0f 0e 3e f0 5a 14 be ef 89 89 bd 17 39 06 be
       0.13873231 -0.14487815 -0.06715762 -0.13107716
0001c0 13 29 1a be 4a 1e 7b 3d e2 4f a8 3d b5 b2 1f be
       -0.15054731 0.061308183 0.082183614 -0.15595515
0001d0 36 72 be bd e8 f2 1c be 50 cd af bd 5b 84 12 be
       -0.09299128 -0.15327036 -0.08584082 -0.14308302
0001e0 f1 9f 0e be 5d 6b 10 3e 5f ed 22 3e b6 84 09 3e
       -0.139282 0.14103456 0.15910862 0.13429531
0001f0 c9 fa 0f be c1 ca 01 be df 7c bd bd f5 cd 0d be
       -0.1406051 -0.12675 -0.09252333 -0.13848098
